fuzzy_comfort_model2.tflite (tflite, 4632 bytes, 5 tensors)

arith.constant f4 [1, 16]
0	0xbf91af70	-1.1381664
1	0xbef6214e	-0.48072284
2	0x3e6532de	0.22382686
3	0x3e02da4a	0.12778583
4	0x3e6891a0	0.22711802
5	0xbf70d029	-0.9406763
6	0x3f00ecc0	0.5036125
7	0xbfa016d3	-1.2506965
8	0x3e61f80b	0.22067277
9	0xc021f269	-2.5304205
10	0x3f0c9923	0.5492117
11	0x3f19a407	0.6001591
12	0xbf5507bd	-0.8321493
13	0x3e1e5215	0.15461
14	0xbf8fce88	-1.1234903
15	0xbed52c47	-0.41635343

arith.constant1 f4 [16, 32]
0	0xbdd43161	-0.10360981
1	0x3fbb6c29	1.4642383
2	0xbeb4470f	-0.35210463
3	0x3e961eb9	0.29320315
4	0x3e95182d	0.29120007
5	0xbea864ef	-0.32889506
6	0x3d0e118d	0.034684706
7	0x404d4fb3	3.2079895
8	0xbd6ae6f0	-0.057349145
9	0x3fc2d024	1.521977
10	0x3f5b2e40	0.85617447
11	0xbd58e120	-0.05294907
12	0xbe3343b2	-0.17506292
13	0x3e7636a5	0.24044283
14	0x3fc15e3e	1.5106885
15	0xbe68fb71	-0.22752167
16	0x3c8c5b3e	0.017133351
17	0x3f4c275e	0.7974757
18	0xbe38e248	-0.1805507
19	0x3e8ec2c5	0.27882972
20	0x3c342800	0.010995865
21	0x3e3147aa	0.17312494
22	0xbe5df1db	-0.21674292
23	0x3e3697e7	0.17831384
24	0x3f09673a	0.53673136
25	0x3ea40e79	0.32042292
26	0x3efbde1b	0.4919289
27	0xbe78a925	-0.24283274
28	0xbe8888fc	-0.2666701
29	0xbe251b43	-0.16123681
30	0x3f353535	0.7078431
31	0xbd467bef	-0.048458036
32	0xbe0e4fe2	-0.1389766
33	0x3f025ff3	0.50927657
34	0xbe6c366c	-0.23067635
35	0x3e8b4ba4	0.27206147
36	0xbe859732	-0.26091915
37	0xbe3d3cf5	-0.18480285
38	0xbdb1f6ed	-0.086896755
39	0x3fe625eb	1.7980322
40	0xbca08310	-0.019593745
41	0x3f9ca63c	1.2238231
42	0x3ecabf3a	0.3959902
43	0xbdbb036c	-0.09131512
44	0x3bb7fb5e	0.005614682
45	0xbd1c7dda	-0.03820596
46	0x3f91c2a3	1.1387523
47	0xbe45b747	-0.19308196
48	0x3e833a8d	0.25630608
49	0x3f321e91	0.6957789
50	0x3e8c932b	0.2745603
51	0x3e9ca32d	0.30593243
52	0x3c139620	0.009007961
53	0x3e692496	0.22767863
54	0x3e6896a9	0.22713722
55	0x3e6c5877	0.23080622
56	0x3eea0748	0.4570868
57	0x3ead5a9b	0.3385819
58	0x3eb4ff1e	0.3535089
59	0xbe8a482b	-0.27008185
60	0x3e990958	0.2988994
61	0xbe9767d6	-0.29571408
62	0x3e13d1aa	0.14435449
63	0x3e83f6a1	0.257741
64	0xbe196850	-0.14981198
65	0xbd71272c	-0.058875248
66	0xbe874282	-0.2641793
67	0x3d8bb7a4	0.06822136
68	0xbe7a225a	-0.24427167
69	0xbe66f601	-0.2255478
70	0x3e9b0839	0.3027971
71	0x3e53ef49	0.20696749
72	0xbe0fca0e	-0.14041921
73	0x3e90e06b	0.28296217
74	0x3e84999b	0.25898442
75	0x3cc4f300	0.024041653
76	0xbe40336f	-0.1876962
77	0x3e4e9532	0.20174101
78	0x3cc7889e	0.024357136
79	0x3eadd36d	0.33950368
80	0x3dccc9f1	0.09999455
81	0xbeb5b2a6	-0.3548786
82	0xbe76cbdc	-0.24101204
83	0xbe95bb44	-0.29244435
84	0xbd887854	-0.06663576
85	0xbe34a48a	-0.17640892
86	0xbd9b2733	-0.07575836
87	0xbe7a1c54	-0.24424869
88	0xbdfa5710	-0.12223637
89	0x3e376bf1	0.1791227
90	0xbe49ad7a	-0.19695082
91	0x3e464329	0.19361557
92	0xbc382d9a	-0.011241341
93	0x3c59bce0	0.01328966
94	0xbe6fcb0f	-0.23417304
95	0xbdb33063	-0.087494634
96	0x3e99185d	0.299014
97	0xbeb2d9a1	-0.34931663
98	0xbdaa5098	-0.08316153
99	0x3e61a8fe	0.22037122
100	0xbe42e24b	-0.19031636
101	0x3c37360b	0.011182318
102	0xbec53c5b	-0.3852261
103	0x3e85342a	0.2601636
104	0x3d69ff88	0.05712846
105	0xbc2eff20	-0.010680944
106	0xbce9a16b	-0.028519353
107	0xbe2feda4	-0.17180496
108	0xbe11913a	-0.14215556
109	0xbe6fe924	-0.2342878
110	0x3d80b582	0.0628462
111	0x3e446306	0.191784
112	0x3e5b6e54	0.21428806
113	0x3e8f706b	0.28015456
114	0xbe828811	-0.25494435
115	0x3e30f696	0.17281565
116	0xbb067d00	-0.0020521283
117	0xbe954d19	-0.29160383
118	0x3e1d4415	0.15358002
119	0xbe011d48	-0.12608826
120	0xbe38cb82	-0.18046382
121	0x3e94f0b8	0.29089904
122	0xbe2d8510	-0.1694529
123	0xbebcea83	-0.36897668
124	0x3eb262eb	0.34841093
125	0xbe9202f8	-0.2851789
126	0xbe1b73aa	-0.15180841
127	0xbd635daa	-0.055509247
128	0x3b8c2fc9	0.0042781574
129	0x3e1812c4	0.14850909
130	0xbd903578	-0.07041448
131	0x3e306202	0.17224887
132	0x3e0a0f8a	0.1348249
133	0xbda3cdf3	-0.07998266
134	0xbd8ba404	-0.06818393
135	0x3e997d49	0.29978397
136	0x3e53da2e	0.20688698
137	0x3d4deb04	0.050272956
138	0x3e71b4c0	0.23604107
139	0xbd4fe5b8	-0.050756186
140	0xbcdeb56a	-0.027186114
141	0xbe473c07	-0.19456492
142	0x3d518c2d	0.051159073
143	0x3ea5f313	0.32412013
144	0x3da7661f	0.08173775
145	0x3d3fc196	0.046815477
146	0x3d319ca8	0.04336229
147	0x3e43dbc6	0.19126806
148	0xbeb396d3	-0.35076007
149	0x3e0ec19a	0.1394104
150	0x3e53b69e	0.20675132
151	0xbd39d608	-0.04537013
152	0x3e809a51	0.25117734
153	0xbebd2200	-0.36940002
154	0x3d87dc9a	0.06633873
155	0xbe8f3787	-0.27972052
156	0xbd1376bc	-0.036001906
157	0x3e51d666	0.20491943
158	0xbcf78cef	-0.03021857
159	0x3e2e1ff6	0.1700438
160	0xbdf0a01e	-0.1174929
161	0x3fcab215	1.5835596
162	0xbea90582	-0.33012015
163	0x3ef52624	0.4788066
164	0xbeaa70e5	-0.33289257
165	0xbed57987	-0.4169428
166	0x3dbc9477	0.09208005
167	0x4040c06d	3.0117447
168	0x3e3e708e	0.18597624
169	0x3fa942e6	1.3223541
170	0x3f3097d9	0.689817
171	0xbeaf67c4	-0.34258854
172	0x3ea21a6f	0.31660792
173	0xbeaa4f5a	-0.33263665
174	0x3fc13be0	1.5096397
175	0x3eaadb6d	0.33370534
176	0xbe5d2617	-0.21596561
177	0x3f7e180c	0.9925544
178	0x3e6f2cfa	0.23357001
179	0xbda1a85c	-0.0789344
180	0xbe7422b2	-0.2384136
181	0x3dce2524	0.10065678
182	0xba9d97ff	-0.0012023448
183	0x3e21be67	0.15795289
184	0x3fb3dd60	1.4051933
185	0xbbb6f311	-0.005583175
186	0x3eb6a2c1	0.35671046
187	0xbe88b967	-0.2670395
188	0xbe815907	-0.25263235
189	0x3e9fa941	0.31183818
190	0x3ef8e2d0	0.48610544
191	0x3d527e08	0.051389724
192	0xbd479e58	-0.048734993
193	0xbeb28fc5	-0.34875312
194	0xbe61d151	-0.22052504
195	0xbe67ee19	-0.22649421
196	0x3e147950	0.14499402
197	0xbe9bdcdd	-0.30441943
198	0x3e75d47a	0.24006835
199	0x3e48c936	0.19608006
200	0x3e813207	0.2523348
201	0xbe7fb45e	-0.24971148
202	0xbd751e10	-0.059843123
203	0xbea8abda	-0.32943612
204	0xbe777294	-0.24164802
205	0x3cd69a20	0.02619654
206	0xbe36bb4a	-0.17844883
207	0xbe926ed6	-0.28600186
208	0x3e909e1d	0.2824563
209	0xbe8d6134	-0.27613223
210	0x3e627426	0.2211462
211	0xbd3805f0	-0.044927537
212	0x3e7daa2a	0.24771944
213	0xbd211d00	-0.039334297
214	0xbc5e3ee0	-0.013564795
215	0xbdc1cf40	-0.09463358
216	0x3e9e6d39	0.30942705
217	0xbe338e67	-0.17534791
218	0xbe1a668a	-0.15078178
219	0x3e962eb9	0.29332522
220	0x3e7f57fa	0.24935904
221	0x3e40e38a	0.188368
222	0x3e21029e	0.15723655
223	0x3d37ad88	0.044843227
224	0xbe305d08	-0.17222989
225	0x3fea57ec	1.8308082
226	0xbe450ea2	-0.19243863
227	0x3f308a70	0.6896124
228	0x3d2f3ff8	0.042785615
229	0xbe917319	-0.28408125
230	0xbc351c77	-0.01105415
231	0x405db8d3	3.4644058
232	0xbe4f5189	-0.20245947
233	0x3fc3185a	1.5241807
234	0x3f3ac63a	0.7295872
235	0xbb767a00	-0.0037609339
236	0xbe82c318	-0.2553947
237	0xbe70ca95	-0.23514779
238	0x3fcc0525	1.593907
239	0x3c93f870	0.0180628
240	0xbdda40f9	-0.10656924
241	0x3f91d24e	1.1392305
242	0x3c98bea0	0.018645585
243	0x3e49a65e	0.1969237
244	0x3e57171e	0.21004912
245	0xbe1556e0	-0.14583921
246	0xbe875339	-0.2643068
247	0x3ea2cb2a	0.31795627
248	0x3fa136ec	1.2594886
249	0x3e3d1437	0.18464743
250	0x3e61a0e8	0.22034037
251	0xbf0f7987	-0.5604481
252	0xbda30bf0	-0.07961261
253	0xbe24f64b	-0.16109578
254	0x3f29e3ee	0.6636342
255	0x3e210407	0.15724193

sequential_1/dense_1_2/BiasAdd/ReadVariableOp f4 [16]
0	0x3bbbb55b	0.0057284064
1	0xbd6a0135	-0.057130057
2	0xbca3188b	-0.019909164
3	0xbcfae798	-0.03062801
4	0xbd25965e	-0.040426604
5	0xbd33126f	-0.04371875
6	0x00000000	0.0
7	0x3d11005e	0.03540074
8	0xbd84b205	-0.06479267
9	0xbe123ad1	-0.14280249
10	0xbd3eb55b	-0.046559673
11	0x3eceffbf	0.40429494
12	0x3c454c2c	0.012042087
13	0xbd0a5e33	-0.03378124
14	0xbc4a2e55	-0.012340148
15	0xbe2c17f5	-0.16806014

sequential_1/dense_1/BiasAdd/ReadVariableOp f4 [32]
0	0xbcd61de9	-0.02613731
1	0x3da44ee6	0.08022861
2	0x00000000	0.0
3	0xbd6dcb27	-0.05805507
4	0x00000000	0.0
5	0x3e0fc756	0.14040884
6	0xbc9e90ea	-0.01935621
7	0xbeb40eb5	-0.3516747
8	0x00000000	0.0
9	0x3e92547d	0.28580084
10	0x3e8042ec	0.25051057
11	0x00000000	0.0
12	0x3e064731	0.13113095
13	0xbd76efc6	-0.06028726
14	0x3eaea805	0.34112564
15	0x00000000	0.0
16	0xbd83381c	-0.064071864
17	0x3e8bc9ad	0.27302304
18	0x00000000	0.0
19	0x00000000	0.0
20	0x00000000	0.0
21	0x00000000	0.0
22	0xbdc17aff	-0.09447288
23	0xbbb4ed54	-0.005521456
24	0x3e1c7794	0.1527999
25	0x3ce6a0e4	0.02815289
26	0x3db4f5a1	0.088359125
27	0x3e94959b	0.2902039
28	0xbc0cdd8a	-0.008597741
29	0x00000000	0.0
30	0x3e354443	0.17701821
31	0xbda6bff9	-0.08142085

sequential_1/dense_1/MatMul f4 [32, 2]
0	0xbe87a1ad	-0.26490536
1	0x3cdcf202	0.026970867
2	0xbfc44565	-1.5333678
3	0x3ef7dcee	0.48410743
4	0xbe29cbc0	-0.1658163
5	0xbea17458	-0.31534076
6	0xbf517ae0	-0.8182812
7	0x3ed6fb6b	0.41988692
8	0xbe72a2d5	-0.23694928
9	0xbe68b589	-0.227255
10	0x3ee295fc	0.44255054
11	0x3eaf5ba9	0.3424962
12	0x3e09fb27	0.13474713
13	0x3eb24aaa	0.3482259
14	0x3f8d0de4	1.1019864
15	0x3e33e870	0.17569137
16	0xbe5a97a8	-0.21346915
17	0xbced0340	-0.028932214
18	0xbf932c89	-1.1497966
19	0xbc9e73ce	-0.01934233
20	0xbed8fc43	-0.4237996
21	0xbe972242	-0.29518324
22	0xbd32b818	-0.043632597
23	0xbeb9ad74	-0.36265147
24	0x3d51c03a	0.051208712
25	0x3e82cf71	0.2554889
26	0xbce7b0d9	-0.02828257
27	0x3d78983f	0.06069207
28	0x3e008e3e	0.12554261
29	0xbf5f911d	-0.873308
30	0xbeba9898	-0.36444545
31	0xbe095c00	-0.13414001
32	0x3e53033c	0.20606703
33	0x3cd2c3a1	0.025728049
34	0x3edac670	0.4272952
35	0xbf2ab03b	-0.66675156
36	0xbebbd3bd	-0.3668498
37	0xbe9fc198	-0.31202388
38	0xbd8dcaf0	-0.06923473
39	0xbed3325a	-0.41249353
40	0xbcb67cf0	-0.022276372
41	0xbd707988	-0.05870965
42	0xbeb90ac6	-0.36141032
43	0xbde091d0	-0.109653115
44	0x3d5af3a7	0.05345502
45	0x3d928d91	0.07155908
46	0x3e6e2477	0.23256098
47	0x3e9603b1	0.2929969
48	0xbf3da402	-0.7407838
49	0x3d55b7d3	0.05217726
50	0x3c9dad93	0.019247806
51	0x3e8b650c	0.2722553
52	0xbec07870	-0.37591887
53	0x3bb31547	0.005465183
54	0xbc19850e	-0.009370102
55	0xbe2a29c3	-0.16617493
56	0xbd8ba4ed	-0.068185665
57	0xb9bba543	-0.0003579055
58	0x3d540488	0.051762134
59	0xbe7f3761	-0.24923469
60	0xbf2114da	-0.6292244
61	0xbd4cea29	-0.050028
62	0x3dea9049	0.114533015
63	0x3e57c2d7	0.21070419
